dataset/VQA-RAD/embed_tfidf_weights.pkl (torch, 102913 bytes, 2 tensors)

weight f4 [42, 300]
0.00075678 0.11153 -0.44716 0.31323 -0.66083 0.020982 0.048851 0.41287
-0.5329 0.46908 -0.055608 0.28457 0.2972 -0.40127 -0.21444 0.082601
0.10267 -0.6111 -0.097504 0.18651 0.010934 0.61212 -0.5862 -0.10477
0.3266 0.075197 -0.11786 0.20407 0.62492 0.20666 0.043239 0.24758
-0.17813 -0.24928 0.29267 -0.57983 -0.46335 -0.28563 0.084701 0.75361
-0.60302 -0.15697 -0.72878 -0.12542 0.33783 -0.65122 0.084529 -0.1925
-0.24642 -0.5623 -0.45877 0.37234 -0.31728 -0.71975 0.4079 -0.27957
0.069506 -0.38808 0.13705 0.078593 -0.5471 0.099795 -0.16649 0.43308
-0.23959 0.33575 0.18242 -0.92795 -0.37868 -0.073663 -0.24986 -0.36139
-0.52947 -0.25646 -0.00092602 0.30519 -0.19985 0.46893 -0.28235 0.19489
-0.38276 -0.12294 -0.48425 -0.42426 -0.10849 0.24152 0.27667 0.10814
0.25595 0.10773 -0.045002 -0.10828 -0.64722 -0.010785 0.46514 0.19562
-0.067153 -0.38036 -0.3004 0.23517 -0.36563 -0.37584 -0.28073 0.13536
-0.089546 0.13492 0.53877 -0.44186 0.20841 -0.074886 -0.50229 0.19395
-0.31646 0.19809 -0.22079 0.20316 0.14264 0.4674 -0.18435 0.21682
0.64576 0.049466 -0.06906 -0.18867 0.26503 0.015362 -0.053473 0.44184
-0.33327 0.60393 -0.22554 -0.23484 0.010489 -0.28528 0.12151 -0.046217
-0.85502 0.37393 0.10385 0.083745 0.092918 0.63859 -0.13768 0.24187
0.23778 -0.09965 -0.30019 -0.1383 0.30432 0.44479 -0.6959 0.27444
0.11822 0.40032 -0.32802 -0.62452 0.20676 -0.54165 0.72444 0.36395
0.34678 0.42414 -0.091258 -0.20774 -0.36084 0.23572 0.45961 -0.3063
-0.2492 -0.1648 -0.41715 -0.62113 0.51311 -0.29341 0.2197 0.28878
-0.44419 0.087372 0.2464 -0.5182 0.10293 -0.19732 -0.3296 -0.17152
0.39949 -0.080502 -0.055948 0.16 0.62458 0.29984 0.33278 0.13408
-0.294 0.3663 -0.20763 -0.11139 -0.53784 -0.18372 0.43669 -0.24906
-0.69788 0.38096 -0.23152 -0.0082944 -0.10926 -0.32627 0.53243 0.04999
-0.3012 -0.42196 0.38592 0.14654 -0.43426 -0.67071 -0.36591 -0.55442
-0.23572 0.090021 0.37316 0.12914 -1.3467 0.033005 0.63194 -0.81473
0.11244 -0.3843 0.4587 -0.21006 0.06749 0.34409 -0.026987 -0.042231
-0.00921 0.045355 -0.23855 0.032372 -0.1982 0.18015 0.30727 -0.44483
0.026385 -0.66701 -0.39878 0.063376 0.5842 0.22135 0.65847 0.83041
0.53357 0.47101 0.05101 0.58701 -0.084806 -0.052583 -0.22688 0.63409
00000000: a562 463a d769 e43d 28f2 e4be af5f a03e
00000010: 282c 29bf 71e2 ab3c fc17 483d b263 d33e
00000020: 226c 08bf 412b f03e 37c5 63bd 29b3 913e
00000030: 992a 983e 4373 cdbe 2996 5bbe b72a a93d
00000040: a644 d23d 0d71 1cbf 2db0 c7bd 7afc 3e3e
00000050: 8524 333c e5b3 1c3f 3411 16bf a791 d6bd
00000060: 1d38 a73e e200 9a3d 9560 f1bd baf7 503e
00000070: c2fa 1f3f ae9e 533e 611b 313d 9d85 7d3e
00000080: b667 36be 4243 7fbe d8d8 953e bd6f 14bf
00000090: 363c edbe 183e 92be b877 ad3d 96ec 403f
000000a0: 855f 1abf bebc 20be 5391 3abf 1a6e 00be
000000b0: 0ef8 ac3e 5bb6 26bf 8a1d ad3d b81e 45be
000000c0: 8655 7cbe e5f2 0fbf e7e3 eabe 59a3 be3e
000000d0: 8672 a2be 8941 38bf 45d8 d03e cd23 8fbe
000000e0: 2959 8e3d 6cb2 c6be d656 0c3e 5ef5 a03d
000000f0: bf0e 0cbf 5261 cc3d 5b7c 2abe a9bc dd3e
00000100: 1557 75be 6de7 ab3e 4fcc 3a3e 228e 6dbf
00000110: 58e2 c1be a0dc 96bd 4ddb 7fbe 1c08 b9be
00000120: 598b 07bf ba4e 83be 26c0 72ba dd41 9c3e
00000130: 7aa5 4cbe 9817 f03e 2e90 90be 3f91 473e
00000140: 1ef9 c3be f7c7 fbbd 9eef f7be 9b38 d9be
00000150: 0130 debd 0551 773e b1a7 8d3e 8178 dd3d
00000160: e10b 833e 8ca1 dc3d 0454 38bd e8c1 ddbd
00000170: 36b0 25bf 92b3 30bc d526 ee3e 9c50 483e
00000180: 8387 89bd 8cbe c2be 07ce 99be 68d0 703e
00000190: db33 bbbe 1a6e c0be d8bb 8fbe d09b 0a3e
000001a0: e563 b7bd 7828 0a3e d5ec 093f 793b e2be
000001b0: 6e69 553e d55d 99bd 1496 00bf d49a 463e
000001c0: 0c07 a2be 1bd8 4a3e c616 62be 2d09 503e
000001d0: 3810 123e 0e4f ef3e 3fc6 3cbe 1006 5e3e
000001e0: 8750 253f dc9c 4a3d 546f 8dbd b532 41be
000001f0: 03b2 873e e6b0 7b3c 8106 5bbd da38 e23e
00000200: 5ea2 aabe 289b 1a3f f5f3 66be e679 70be
00000210: 0eda 2b3c 3810 92be 3cda f83d 094e 3dbd
00000220: 97e2 5abf c173 bf3e 4faf d43d 8082 ab3d
00000230: cb4b be3d a27a 233f fcfb 0cbe c5ac 773e
00000240: 9a7c 733e 4d15 ccbd 81b2 99be 849e 0dbe
00000250: d5cf 9b3e 84bb e33e 8126 32bf 6683 8c3e
00000260: 541d f23d bef6 cc3e 3df2 a7be 8be0 1fbf
00000270: e5b8 533e 93a9 0abf e674 393f a857 ba3e
00000280: 268d b13e e128 d93e 79e5 babd cbb9 54be
00000290: 05c0 b8be 9560 713e 0052 eb3e 5bd3 9cbe
000002a0: 492e 7fbe 55c1 28be af94 d5be 6002 1fbf
000002b0: 2d5b 033f d639 96be 09f9 603e f9da 933e
000002c0: df6c e3be 17f0 b23d 4850 7c3e c1a8 04bf
000002d0: f7cc d23d 410e 4abe 55c1 a8be f0a2 2fbe
000002e0: f489 cc3e 3cde a4bd bb29 65bd 0ad7 233e
000002f0: 7ae4 1f3f a184 993e 2462 aa3e 444c 093e
00000300: 2b87 96be ac8b bb3e f59c 54be 7120 e4bd
00000310: e2af 09bf 1821 3cbe d595 df3e 9609 7fbe
00000320: 44a8 32bf 300d c33e 9413 6dbe 3ce5 07bc
00000330: b5c3 dfbd dd0c a7be 554d 083f 50c2 4c3d
00000340: e336 9abe 240b d8be 4e97 c53e 950e 163e
00000350: 5457 debe a7b3 2bbf 8e58 bbbe 78ee 0dbf
00000360: 9560 71be ee5c b83d d40e bf3e 473d 043e
00000370: aa60 acbf 4030 073d d2c6 213f 2592 50bf
00000380: f146 e63d f8c2 c4be bada ea3e f819 57be
00000390: 3238 8a3d 912c b03e d713 ddbc 6afa 2cbd
000003a0: 8ae5 16bc 2ac6 393d 7446 74be 8198 043d
000003b0: f1f4 4abe 3e79 383e 7e52 9d3e c2c0 e3be
000003c0: 5b25 d83c 2bc1 2abf e42c ccbe 47cb 813d
000003d0: 228e 153f 93a9 623e 7d91 283f c095 543f
000003e0: 0b98 083f 3928 f13e ddef 503d 4a46 163f
000003f0: c5ae adbd 4661 57bd 3b53 68be b953 223f

weight f4 [42, 300]
-0.1473032 0.106157795 -0.037719715 -0.12207886 -0.035096813 -0.017110309 -0.059739623 -0.024561899
-0.0019958974 -0.9687756 -0.220283 -0.07375848 -0.23145622 0.04638745 0.044824354 0.18600793
-0.16425902 0.018384049 -0.089578524 0.15137905 -0.13050777 0.13004827 0.08943469 -0.14269017
-0.22513142 0.041028153 0.014165385 -0.21068954 -0.053833302 0.040115353 -0.108912066 0.26877093
-0.11957326 0.14382538 -0.300584 -0.050993 0.13473181 -0.00052289554 -0.18425225 0.0896243
0.019565502 0.057742145 0.0036793023 -0.15087561 0.048585605 0.12712105 0.13395254 0.11007231
-0.11637099 0.0352841 -0.022184653 -0.06953985 0.0688646 -0.0785353 -0.058237903 0.06814179
-0.10481252 0.066849746 0.18297623 0.21055396 0.04382393 -0.03568144 0.10379714 0.08671565
-0.0198752 -0.27453792 0.14437641 0.11210738 -0.04613245 0.2423934 0.057444047 -0.093983576
0.24150002 -0.06302306 -0.0642915 -0.018227797 -0.12821515 -0.08311289 -0.24539223 0.0028040982
-0.13304381 -0.16735052 -0.021862946 0.086985104 -0.032191504 0.1479143 -0.067468695 -0.06291237
-0.042405996 0.2078283 -0.18677402 0.0851633 -0.31922546 0.018187294 0.033366796 0.1388456
-0.22760119 0.008827994 0.058688745 -0.19468303 0.099403046 -0.04289035 0.066054 -0.086310804
-0.21730018 0.0560846 0.07478616 0.024470601 -0.13933367 0.28762525 -0.15936387 -0.09196021
-0.12963262 -0.083761215 0.19551252 0.08819328 0.014506146 -0.035779953 -0.2832171 -0.1177068
0.08370411 -0.191079 0.1160894 0.16003571 -0.055939432 -0.13977498 0.048315097 -0.029482506
0.025908895 0.028736306 0.045147207 0.029714413 0.10215461 -0.01536868 0.013705912 0.032711852
-0.076146506 -0.0374439 -0.006802106 0.2348339 -0.16092099 0.0584391 0.0014957001 0.012697246
-0.17132193 -0.12738365 -0.07542675 0.13253875 -0.017585726 0.14322647 -0.036239948 -0.14865853
0.1334999 0.11314965 0.26334155 -0.028801901 0.06902013 -0.008029065 0.04208384 -0.0076473183
0.0918489 -0.18411048 0.020167796 -0.1324825 0.13172366 0.14082713 -0.0176281 0.0656122
0.16686954 0.11745827 0.060563512 0.0074636983 -0.10505164 -0.14226626 -0.17287885 -0.09773235
0.0352091 -0.087466955 -0.056467474 -0.08822204 -0.001525076 0.08570805 0.123418055 -0.017672872
0.13218424 -0.11388625 0.14935367 -0.17986465 -0.12611395 -0.022203254 -0.040140647 0.15039514
0.10203243 0.0010725472 0.12512542 0.058289666 -0.018830707 -0.06396895 0.0037112888 0.14750357
0.46818203 -0.012153103 0.035643253 -0.1696721 0.010069139 0.12539116 -0.20427595 0.0413226
-0.018170645 0.049969748 0.08803008 0.10837215 0.159684 -0.028960008 0.034731597 0.05594455
0.024269158 -0.0816255 0.09446581 0.033391602 -0.22556815 -0.2519477 -0.12836805 -0.038166795
-0.027927214 -0.073344946 8.8901485e-05 0.11239715 -0.008741354 -0.060482305 0.022215249 0.0672649
0.099042356 -0.19745998 -0.004972295 -0.068062544 0.11419915 -0.08997265 -0.036343805 0.021637857
-0.08379405 -0.09452575 0.27949744 0.08867266 -0.72217107 -0.14357215 0.17888542 0.0946525
0.022690233 0.045740645 0.0062554 0.0637143 0.0672979 -0.111001 0.023059534 0.20861602
00000000: a6d6 16be 4269 d93d fd7f 1abd 7b04 fabd
00000010: adc1 0fbd eb2a 8cbc 89b1 74bd 0936 c9bc
00000020: 9acd 02bb ad01 78bf de91 61be b00e 97bd
00000030: dc02 6dbe c400 3e3d be99 373d dd78 3e3e
00000040: 8433 28be 259a 963c f274 b7bd 1c03 1b3e
00000050: d4a3 05be 602b 053e 8929 b73d 5f1d 12be
00000060: da88 66be 230d 283d ee15 683c 00bf 57be
00000070: 4f80 5cbd ff4f 243d 4a0d dfbd 589c 893e
00000080: d3e2 f4bd f646 133e 25e6 99be 09de 50bd
00000090: 23f7 093e ed12 09ba 9fac 3cbe f28c b73d
000000a0: d547 a03c 0783 6c3d 7320 713b 237f 1abe
000000b0: b301 473d 052c 023e db2a 093e 976d e13d
000000c0: ea53 eebd 0f86 103d 97bc b5bc e96a 8ebd
000000d0: e208 8d3d 1ed7 a0bd de8a 6ebd ec8d 8b3d
000000e0: f2a7 d6bd 85e8 883d 1f5e 3b3e 759b 573e
000000f0: b980 333d b426 12bd 9893 d43d fa97 b13d
00000100: 51d1 a2bc 3c90 8cbe 69d7 133e 8e98 e53d
00000110: 61f5 3cbd fa35 783e 734a 6b3d 767a c0bd
00000120: c84b 773e 3c12 81bd 43ab 83bd 7652 95bc
00000130: d54a 03be 1737 aabd 1a48 7bbe f6c4 373b
00000140: a33c 08be ef5d 2bbe ec19 b3bc 3f25 b23d
00000150: 3ddb 03bd d976 173e 072d 8abd 33d8 80bd
00000160: e9b1 2dbd f1d0 543e b041 3fbe 196a ae3d
00000170: 8571 a3be 85fd 943c 9fab 083d 8a2d 0e3e
00000180: 4910 69be 4aa3 103c 9c63 703d fd5a 47be
00000190: d393 cb3d cbad 2fbd 5247 873d b8c3 b0bd
000001a0: f083 5ebe f7b8 653d 7c29 993d 9276 c83c
000001b0: 7cad 0ebe 9e43 933e 4830 23be a255 bcbd
000001c0: 6abe 04be 008b abbd 6f34 483e ae9e b43d
000001d0: 30ab 6d3c 008e 12bd d501 91be 4310 f1bd
000001e0: 0f6d ab3d 37aa 43be 48c0 ed3d 67e0 233e
000001f0: bf20 65bd 2c21 0fbe 0de6 453d 4c85 f1bc
00000200: e43e d43c 6768 eb3c 47ec 383d a46b f33c
00000210: 7036 d13d eacc 7bbc c38e 603c ddfc 053d
00000220: b3f2 9bbd c65e 19bd 33e4 debb 4c78 703e
00000230: 79c8 24be d65d 6f3d 5e0b c43a 1c08 503c
00000240: 046f 2fbe dc70 02be 5779 9abd 3db8 073e
00000250: f10f 90bc f6a9 123e 5770 14bd f139 18be
00000260: 33b4 083e 01bb e73d b4d4 863e f7f1 ebbc
00000270: 6d5a 8d3d 578c 03bc 1b60 2c3d 5b96 fabb
00000280: 471b bc3d 7587 3cbe ef36 a53c 7ea9 07be
00000290: 91e2 063e fd34 103e ce68 90bc b05f 863d
000002a0: d9df 2a3e f68d f03d 7211 783d 0a92 f43b
000002b0: 5025 d7bd 3fae 11be 2707 31be e627 c8bd
000002c0: 6b37 103d e021 b3bd 704a 67bd c2ad b4bd
000002d0: 0fe5 c7ba b487 af3d 9bc2 fc3d b3c6 90bc
000002e0: 4e5b 073e 323d e9bd 2bf0 183e 702e 38be
000002f0: 0424 01be 99e3 b5bc 856a 24bd 2f01 1a3e
00000300: 61f6 d03d b694 8c3a e120 003e 25c1 6e3d
00000310: db42 9abc 2702 83bd 1839 733b 2d0b 173e
00000320: 8eb5 ef3e cf1d 47bc a9fe 113d 86be 2dbe
00000330: 08f9 243c 8a66 003e b72d 51be e341 293d
00000340: 9bda 94bc 14ad 4c3d 1d49 b43d 38f2 dd3d
00000350: 3484 233e 8a3d edbc b842 0e3d 1d26 653d
00000360: 1dd0 c63c 452b a7bd 4a77 c13d a2c5 083d
00000370: 56fb 66be 4aff 80be ea72 03be c954 1cbd
00000380: 9dc7 e4bc e035 96bd 9f70 ba38 7a30 e63d
00000390: e537 0fbc 4bbc 77bd c1fc b53c 2ec2 893d
000003a0: b8d6 ca3d f332 4abe a2ee a2bb 6064 8bbd
000003b0: 3ee1 e93d 9543 b8bd 3edd 14bd e041 b13c
000003c0: 379c abbd b796 c1bd 4a1a 8f3e 039a b53d
000003d0: 34e0 38bf 9404 13be bd2d 373e 2bd9 c13d
000003e0: dee0 b93c 8b5a 3b3d 19fa cc3b a57c 823d
000003f0: 7bd3 893d 7e54 e3bd 59e7 bc3c 709f 553e
