dataset/VQA-Med-2019/embed_tfidf_weights.pkl (torch, 54837 bytes, 2 tensors)

weight f4 [22, 300]
0	0xbe4cf95d	-0.20017
1	0x3e1273d6	0.14302
2	0x3d5537a0	0.052055
3	0xba540855	-0.00080884
4	0x3c8b5675	0.017009
5	0x3c741aef	0.014899
6	0xbe82aed1	-0.25524
7	0xbe375e20	-0.17907
8	0xbd3f5621	-0.046713
9	0xc0038034	-2.0547
10	0x3e67991c	0.22617
11	0x3da9acbd	0.082849
12	0xbe58fc50	-0.2119
13	0x3e4bd662	0.19906
14	0x3e9e718b	0.30946
15	0x3e68533b	0.22688
16	0xbd75ddd3	-0.060026
17	0xbd08893b	-0.033334
18	0x3d1c1722	0.038108
19	0x3e67b0b4	0.22626
20	0x3f0586ec	0.52159
21	0x3f19450f	0.59871
22	0x3ee81301	0.45327
23	0xbd285660	-0.041098
24	0xbece4cd7	-0.40293
25	0xbda20ddc	-0.079128
26	0x3b260fca	0.0025339
27	0xbeb888f8	-0.36042
28	0x3d86ce36	0.065823
29	0xbc300bcc	-0.010745
30	0x3d60242d	0.054722
31	0x3f01ef74	0.50756
32	0xbf25681f	-0.64612
33	0xbb966384	-0.0045895
34	0xbf8236e3	-1.0173
35	0x3e9ab756	0.30218
36	0xbe821038	-0.25403
37	0x3dc3e293	0.095647
38	0xbd42b1f7	-0.047533
39	0xbea64ae0	-0.32479
40	0x3e16d5d0	0.1473
41	0xbe4f41f2	-0.2024
42	0x3c40a8d2	0.011759
43	0x3de3150e	0.11088
44	0x3c800c95	0.015631
45	0x3de56042	0.112
46	0x3d0a515d	0.033769
47	0x3e2469d7	0.16056
48	0xbecb7564	-0.39738
49	0x3dc05bc0	0.093925
50	0x3e69d9d3	0.22837
51	0xbe9f2cf9	-0.31089
52	0x3d12d341	0.035846
53	0x3d34e54f	0.044164
54	0xbe9ca969	-0.30598
55	0x3f1d4bf1	0.61444
56	0xbd410a57	-0.047129
57	0x3e6ec17f	0.23316
58	0x3e540a28	0.20707
59	0x3e836a40	0.25667
60	0x3de93f29	0.11389
61	0xbde8240b	-0.11335
62	0x3ec0f7ba	0.37689
63	0x3ed855da	0.42253
64	0xbe0039ac	-0.12522
65	0xbe80e7ff	-0.25177
66	0xbd2f3908	-0.042779
67	0xbd8b11c7	-0.067905
68	0xbcab7fe1	-0.020935
69	0xbe3aebc4	-0.18254
70	0x3d8c8798	0.068618
71	0xbc14a899	-0.0090734
72	0x3dd205bc	0.10255
73	0x3eab8cfc	0.33506
74	0xbdf00150	-0.11719
75	0xbe361911	-0.17783
76	0x3ce1aa3f	0.027547
77	0x3e7074a7	0.23482
78	0xbf02d384	-0.51104
79	0xbdc77920	-0.097399
80	0xbead566d	-0.33855
81	0xbc7212d7	-0.014775
82	0x3eb7ebaf	0.35922
83	0x3e26f694	0.16305
84	0x3dc135db	0.094341
85	0x3e3890d6	0.18024
86	0xbc0a6910	-0.0084479
87	0x3ed89375	0.423
88	0x3e7c4da9	0.24639
89	0x3e9f7122	0.31141
90	0xbf0c3aa8	-0.54777
91	0x3f05c337	0.52251
92	0xbebc01a3	-0.3672
93	0xbe5f3626	-0.21798
94	0xbe07a0f9	-0.13245
95	0xbdffd60f	-0.12492
96	0xbefc970f	-0.49334
97	0xbbc15245	-0.0058997
98	0xbc4cc469	-0.012498
99	0xbefbf9c6	-0.49214
100	0x3e1a5e35	0.15075
101	0x3e35e743	0.17764
102	0xbe29984a	-0.16562
103	0x3ccfa8b5	0.025349
104	0x3dc56c51	0.096398
105	0x3d98b47c	0.074563
106	0x3e9c13fd	0.30484
107	0x3e81797d	0.25288
108	0xbe05ac47	-0.13054
109	0x3f01f16b	0.50759
110	0x3e33ae68	0.17547
111	0xbe6ee8d1	-0.23331
112	0xbd33c4f4	-0.043889
113	0xbe8fb2ab	-0.28066
114	0x3e40e172	0.18836
115	0x3e3ab218	0.18232
116	0x3e7b9b67	0.24571
117	0xbd2c1c1d	-0.042019
118	0x3dc699c8	0.096973
119	0xbe99d346	-0.30044
120	0xbbb18e83	-0.0054186
121	0xbea2b55f	-0.31779
122	0x3c38066c	0.011232
123	0x3e7d7881	0.24753
124	0x3c08992c	0.0083373
125	0xbee9cf57	-0.45666
126	0xbd415098	-0.047196
127	0x3ecc0981	0.39851
128	0x3bc39f27	0.0059699
129	0x3d180c31	0.037121
130	0x3e1c0981	0.15238
131	0xbe43a7db	-0.19107
132	0xbbb62846	-0.005559
133	0xbee28241	-0.4424
134	0xbdf4a772	-0.11946
135	0x3d8c88a4	0.06862
136	0xbe361134	-0.1778
137	0x3c8e1f7d	0.017349
138	0xbdf5b813	-0.11998
139	0x3e2a25d9	0.16616
140	0x3c677920	0.014128
141	0x3e535a86	0.2064
142	0x3dd04d55	0.10171
143	0x3e089225	0.13337
144	0xbefb630b	-0.49099
145	0xbe99042e	-0.29886
146	0x3e5234ec	0.20528
147	0x3e59be4d	0.21264
148	0xbe14aa11	-0.14518
149	0x3e0cb7d4	0.13742
150	0xbf1d8a33	-0.61539
151	0xbdbf7058	-0.093476
152	0x3ea97e13	0.33104
153	0xbdd22a6f	-0.10262
154	0x3e0c6152	0.13709
155	0xbd8a58b4	-0.067552
156	0x3dbe529c	0.092931
157	0x3dbc853c	0.092051
158	0x3de58a33	0.11208
159	0x3c8ff759	0.017574
160	0x3eb7bf1f	0.35888
161	0xbec62cba	-0.38706
162	0x3e7c408e	0.24634
163	0xbe3e1b09	-0.18565
164	0x3df83cf3	0.12121
165	0x3e480735	0.19534
166	0xbde085b2	-0.10963
167	0x3e877469	0.26456
168	0xbe4c2a45	-0.19938
169	0x3db6006d	0.088868
170	0x3ded7732	0.11595
171	0xbe6bf877	-0.23044
172	0xbf20125a	-0.62528
173	0xbe8d512f	-0.27601
174	0x3de353f8	0.111
175	0xbd712a0f	-0.058878
176	0xbe9e76c9	-0.3095
177	0x3e1436b9	0.14474
178	0x3db24e16	0.087063
179	0x3e764d7f	0.24053
180	0x3e73fa6e	0.23826
181	0x3d99b670	0.075055
182	0x3db66f93	0.08908
183	0xbe9ad57c	-0.30241
184	0xbdb4bd77	-0.088252
185	0x3e924895	0.28571
186	0xbd8f8488	-0.070077
187	0xbcf88766	-0.030338
188	0x3ec33db0	0.38133
189	0x3ee6ba49	0.45064
190	0xbe0245f6	-0.12722
191	0x3e6cf41f	0.2314
192	0x3e9f3b64	0.311
193	0xbd3d30ad	-0.046189
194	0x3dd4cec4	0.10391
195	0xbc4c9646	-0.012487
196	0x3e3c3611	0.1838
197	0x3da4eb57	0.080527
198	0xbd0306e6	-0.031989
199	0xbeeb72c5	-0.45986
200	0x3fa64c30	1.2992
201	0xbeec01a3	-0.46095
202	0xbd323034	-0.043503
203	0xbd4b178b	-0.049583
204	0x3d67caea	0.05659
205	0xbd5df224	-0.054186
206	0x3dc39368	0.095496
207	0x3e485879	0.19565
208	0xbe0cd749	-0.13754
209	0xbecbb6ed	-0.39788
210	0xbe89a954	-0.26887
211	0x3e8934ad	0.26798
212	0x3e8d898b	0.27644
213	0x3dafd220	0.08585
214	0xbe3974e6	-0.18111
215	0x3e2fb54a	0.17159
216	0xbc1a770f	-0.0094278
217	0x3e51f8a1	0.20505
218	0xbe8f4dbe	-0.27989
219	0xbe0161e5	-0.12635
220	0x3e378812	0.17923
221	0x3e30f51b	0.17281
222	0xbd34b839	-0.044121
223	0x3e522fad	0.20526
224	0x3f0137f4	0.50476
225	0x3e553501	0.20821
226	0x3e686595	0.22695
227	0x3dde646f	0.10859
228	0x3c9dbec2	0.019256
229	0xbe14c986	-0.1453
230	0x3dafc82a	0.085831
231	0x3d801472	0.062539
232	0x3e586445	0.21132
233	0xbd689225	-0.05678
234	0xbeb0f51b	-0.34562
235	0xbc00c3e0	-0.0078592
236	0x3e88255b	0.26591
237	0xbe159ddc	-0.14611
238	0xbdc14ad3	-0.094381
239	0xbdf27675	-0.11839
240	0x3dc1ebc8	0.094688
241	0xbdb46bad	-0.088096
242	0x3f03f91e	0.51552
243	0x3e8cf41f	0.2753
244	0xbf2cd940	-0.67519
245	0xbed3b8e5	-0.41352
246	0xbe1f1950	-0.15537
247	0x3dd743e9	0.10511
248	0x3d289fc7	0.041168
249	0x3e366a55	0.17814
250	0x3e9108c4	0.28327
251	0xbe7635e7	-0.24044
252	0xbea56ffc	-0.32312
253	0x3e65d0fa	0.22443
254	0x3eccfaad	0.40035
255	0x3d266666	0.040625

weight f4 [22, 300]
0	0xbe4d6206	-0.20056924
1	0x3e387ca8	0.18016303
2	0x3dd2d869	0.10295183
3	0xbe6a19ca	-0.228614
4	0xbe1fc2c2	-0.15601638
5	0xbd83df5e	-0.06439088
6	0xbe0e936e	-0.13923427
7	0x3c96467e	0.01834416
8	0xbe33495f	-0.17508458
9	0xbfcd0c56	-1.601939
10	0xbd969bb4	-0.07353917
11	0xbda68b5d	-0.0813205
12	0xbd554eaa	-0.052076973
13	0x3dbc200d	0.09185801
14	0x3e35e295	0.17762215
15	0x3e93ed04	0.28891766
16	0xbe977246	-0.2957937
17	0xbded0b6c	-0.11574444
18	0xbdcaaf24	-0.09896687
19	0xbe7d37b4	-0.2472828
20	0xbcae33b3	-0.021264886
21	0x3e264e62	0.16240838
22	0xbd91d1c6	-0.07120089
23	0x3e70668c	0.23476619
24	0x3d294c4a	0.04133252
25	0xbd9770da	-0.073945716
26	0x3e8b3ca8	0.27194715
27	0xbe9c4dbc	-0.30528057
28	0x3c4fae84	0.012675885
29	0x3afee4e7	0.001944688
30	0x3db9598b	0.09050282
31	0x3eb53b13	0.35396633
32	0xbe865d84	-0.26243222
33	0x3e51060b	0.20412461
34	0xbf0142c9	-0.5049253
35	0x3e5d4f5a	0.21612301
36	0xbcb9538f	-0.022622852
37	0x3cc48d5c	0.023993187
38	0xbf00b617	-0.5027785
39	0x3e42cdfe	0.19023892
40	0xbd02948f	-0.031879958
41	0x3d3f8739	0.046759818
42	0xbdf0795c	-0.117418975
43	0x3c9728ce	0.018452074
44	0x3e074e0b	0.13213365
45	0x3d465ecb	0.048430245
46	0x3e683dec	0.22679871
47	0x3e093bcf	0.13401721
48	0xbd8ac2ef	-0.06775462
49	0x3cd1032e	0.025514212
50	0x3c5234ef	0.012830003
51	0x3d47266d	0.04862063
52	0x3e100bfa	0.14067069
53	0xbdc3bf4b	-0.095579706
54	0xbd8f3cb1	-0.06993998
55	0x3e173f00	0.14770126
56	0xbda78100	-0.08178902
57	0x3de93444	0.11386922
58	0x3ea2e7fd	0.31817618
59	0xbdccd647	-0.10001808
60	0xbd32c92b	-0.04364888
61	0x3dec3e89	0.11535365
62	0x3ee8b8f5	0.4545361
63	0xbc3eb1bb	-0.011639054
64	0xbc5e220b	-0.013557921
65	0xbe6727cd	-0.22573777
66	0xbccbe3f1	-0.024888964
67	0xbd0a4846	-0.03376033
68	0x3dbb8505	0.09156231
69	0x3da31f32	0.079649344
70	0x3cf75e90	0.030196458
71	0x3dc3dfd1	0.09564174
72	0x3e900e3b	0.28135857
73	0xbdb56c07	-0.08858495
74	0xbe81f98b	-0.253857
75	0xbd5f6375	-0.05453821
76	0x3d0aee32	0.033918567
77	0xbe360035	-0.17773516
78	0xbe2ef0bb	-0.17084019
79	0x3deae082	0.11468603
80	0xbe7fd7c6	-0.24984655
81	0xbe78d479	-0.24299802
82	0x3c067528	0.008206643
83	0xbcf033c7	-0.029321564
84	0x3dd79972	0.10527314
85	0x3dd9f15b	0.10641738
86	0xbe113c29	-0.14183106
87	0x3e5f69db	0.21817724
88	0x3d0358ca	0.032067098
89	0x3e2ff57b	0.17183487
90	0xbe980fb5	-0.29699484
91	0x3e59a7a0	0.2125535
92	0xbe056225	-0.1302572
93	0xbe53aa06	-0.20670328
94	0x3cb3859f	0.021914301
95	0x3e2709d8	0.16312349
96	0xbe99015a	-0.29883844
97	0xbc2ccc34	-0.010546733
98	0x3dac9695	0.08427159
99	0xbe9a2b26	-0.30111045
100	0x3e1920fd	0.1495399
101	0x3de79d8d	0.11309347
102	0x3c5d96fb	0.013524766
103	0xbd273c9b	-0.040829282
104	0xbe12eb36	-0.14347538
105	0x3e57dad7	0.21079575
106	0x3e6a9e48	0.22911942
107	0x3dea7da2	0.11449744
108	0xbe1e6b84	-0.15470701
109	0x3e95aec0	0.29234886
110	0x3cbab17f	0.022789715
111	0xbddd53a6	-0.1080697
112	0xbe730e4e	-0.23735926
113	0xbd884947	-0.066546015
114	0x3e8c4893	0.2739912
115	0x3d0ac643	0.033880483
116	0xbd7866a3	-0.060644757
117	0x3d62aaac	0.055338547
118	0xbdeab7ee	-0.11460863
119	0xbe19581f	-0.14975022
120	0xbc9e470f	-0.019320993
121	0xbd79689a	-0.06089077
122	0xbd125521	-0.035725717
123	0x3db3f83d	0.08787582
124	0x3e2a302b	0.16619937
125	0xbc80cdb2	-0.015723083
126	0x3d49e920	0.04929459
127	0x3cee9c9a	0.029127408
128	0x3deb4175	0.11487094
129	0x3e047666	0.1293579
130	0x3d846710	0.0646497
131	0x3dd8010f	0.10547077
132	0x3dfcb2c5	0.12338785
133	0x3d0fd8ed	0.035118986
134	0xbcb0fc4a	-0.021604676
135	0x3c82c1ad	0.015961492
136	0x3d12e687	0.03586438
137	0xbd86366c	-0.06553349
138	0xbdd3f800	-0.103500366
139	0x3e6ab7c1	0.22921659
140	0xbe84ccd8	-0.25937533
141	0x3db8313e	0.08993767
142	0xbe418d0f	-0.18901466
143	0x3d466bf8	0.04844281
144	0xbe0f74e3	-0.14009432
145	0xbea63cb2	-0.32468182
146	0x3cfc5c14	0.030805625
147	0x3e47f7f3	0.19528179
148	0xbdeca563	-0.115549825
149	0x3e41de58	0.18932474
150	0x3e3d57c3	0.1849051
151	0xbe91119c	-0.28333747
152	0x3e7a35ea	0.24434629
153	0x3dc0fc6e	0.09423147
154	0x3ee4fd69	0.44724587
155	0xbd23ce6e	-0.03999179
156	0xbd7da50c	-0.06192498
157	0x3db7cdb4	0.08974782
158	0x3d1fa34d	0.038974095
159	0xbd81c03b	-0.06335493
160	0x3d84fa6e	0.06493078
161	0xbe1500af	-0.14551042
162	0xbdd2f9c1	-0.10301543
163	0xbe82ea4f	-0.25569388
164	0x3d850186	0.06494431
165	0x3e5c4e8d	0.2151434
166	0x3e4c391f	0.19943665
167	0xbcc946c0	-0.024569869
168	0x3cb6d62d	0.022318924
169	0x3e9b61d1	0.30348065
170	0x3e0dd529	0.13850845
171	0x3d9492df	0.07254576
172	0xbeb55ee6	-0.35423964
173	0xbbb2b4e5	-0.005453693
174	0xbdf2fff3	-0.11865225
175	0xbe207cd3	-0.15672617
176	0xbdf0766b	-0.117413364
177	0xbd32cca4	-0.04365219
178	0xbe06300f	-0.1310427
179	0xba5e1ea5	-0.00084731943
180	0xbd88cc17	-0.06679552
181	0x3d9468e1	0.072465666
182	0x3deeebef	0.116660945
183	0x3e258fd7	0.16168152
184	0x3c6e1e81	0.01453364
185	0xbdf77b02	-0.12084009
186	0x3d92b33c	0.071630925
187	0xbdfe860a	-0.1242791
188	0xbe221fdb	-0.15832464
189	0x3e1b90ee	0.15192005
190	0xbdf17fe7	-0.117919736
191	0x3e8e35ae	0.2777533
192	0x3e7cd429	0.24690308
193	0x3c8184b6	0.015810352
194	0xbd80b9e6	-0.06285457
195	0x3d074f8f	0.033034857
196	0x3e3e7cd5	0.18602307
197	0xbe3d1344	-0.1846438
198	0xbce6c329	-0.028169231
199	0x3dfa7c3f	0.12230729
200	0x3f341ea8	0.7035928
201	0xbc930c74	-0.017950274
202	0xbe8ed44c	-0.27896345
203	0xbd81d81e	-0.06340049
204	0xbaf467ff	-0.0018646716
205	0xbd42dbdd	-0.04757296
206	0xbe7f2c47	-0.24919234
207	0xbce6b9ed	-0.028164828
208	0xbd9db422	-0.07700373
209	0xbe2f82f5	-0.171398
210	0x3deb9b71	0.115042575
211	0xbe0b8620	-0.13625383
212	0x3e1193dd	0.14216562
213	0xbd171f82	-0.036895283
214	0x3c9025f3	0.01759622
215	0x3c89881e	0.016788539
216	0x3e17a063	0.14807276
217	0xbd95d988	-0.073168814
218	0xbcea0adc	-0.028569631
219	0x3e1332f8	0.14374912
220	0xbe539ebb	-0.2066602
221	0xbd4134a7	-0.047169354
222	0xbe969554	-0.29410803
223	0xb9b1c355	-0.00033905605
224	0x3e2338e7	0.15939675
225	0x3de56470	0.112007976
226	0xbda151af	-0.07876908
227	0x3daf5de0	0.08562827
228	0xbde1eb57	-0.11031216
229	0x3d9a2bc8	0.07527882
230	0x3df31aaf	0.11870324
231	0x3e699be1	0.2281337
232	0xbcfffb92	-0.031247888
233	0x3bf9f294	0.0076277945
234	0x3d914396	0.07092969
235	0xbe2499eb	-0.1607434
236	0x3ddd3d4d	0.10802708
237	0xbd8e673a	-0.06953283
238	0x3c654c3b	0.013995226
239	0x3d9fc354	0.07800928
240	0x3c0feafd	0.008784053
241	0xbd921b26	-0.071340844
242	0x3e826ade	0.25472158
243	0x3e28a96b	0.16470878
244	0xbf177d6a	-0.5917574
245	0xbd831a52	-0.064015046
246	0x3ea0435d	0.31301394
247	0xbd65734a	-0.05601815
248	0x3c1ad27a	0.009449596
249	0xbc508064	-0.012725923
250	0x3df34705	0.1187878
251	0x3df97c36	0.121818945
252	0xbda110c7	-0.07864528
253	0xbdc63819	-0.096786685
254	0xbd426db2	-0.047467895
255	0x3e02a9c9	0.1276008
